model/model.pth (torch, 16799 bytes, 4 tensors)

linear1.weight f4 [256, 11]
0.49428868 0.05653484 -0.099353604 -0.3865635 -0.16919531 0.3313699 -0.12210735 0.5634199
0.33504483 -0.12100065 -0.47961155 0.05889306 -0.5678004 0.35892016 -0.6344687 -0.011535335
-0.12493754 0.24669601 0.3288838 -0.16936786 -0.041369148 -0.121540725 -0.24948221 -0.26859385
-0.17003609 0.034625545 0.4421225 0.4354886 -0.016739821 -1.0208356 -0.48533157 0.10922745
0.42066056 -0.06696158 0.026849432 -0.8662225 0.54104555 -0.36719102 -0.13678846 0.3368929
-0.30598354 0.43286777 0.11495471 -0.07725188 0.30240998 -0.06291625 0.49438667 -0.11336249
-0.27853322 0.08852936 -0.13641238 0.1813864 0.48681712 0.09410316 0.27077168 -0.13400467
0.05937515 -0.092582904 0.2068177 0.12182977 -0.47162628 -0.12446613 0.022772769 0.37174174
-0.40710777 -0.46352047 0.28647697 0.07575466 -0.14699219 -0.42740452 0.016238987 -0.021904895
-0.2034278 0.5135817 -0.29710773 0.04937366 0.17264552 -0.43077144 0.033739384 0.38448364
-0.29897618 -0.1459967 0.049244333 -0.22375417 -0.16589153 0.21470214 0.25324813 -0.23950392
0.53553605 -0.1897379 0.006630061 0.2165203 -0.016564501 -0.13543946 -0.3677226 0.039842077
0.18090636 0.2902681 -0.011377867 0.3558094 0.08182266 0.08212233 -0.1456024 -0.0025003017
-0.2387234 0.010014576 0.4414412 0.2913223 0.44505262 0.2275506 -0.04955659 0.07370185
-0.050919835 0.2942232 -0.05076369 -0.27178603 -0.7553887 0.40905687 0.2612394 -0.67748564
-0.369589 0.2538982 0.15643811 -0.3046676 0.07783491 -0.33119148 -0.33254868 -0.092356294
-0.5545494 -0.07924011 -0.03326209 0.32414678 -0.25782418 -0.28988323 -0.40232825 -0.33545348
0.5202893 -0.16247328 -0.121487804 -0.7656803 0.13538527 -0.33768716 -0.21763211 0.18935159
0.065677516 0.22194202 0.014749427 -0.5593006 -0.14999159 -0.31136692 -0.06585906 0.4407344
-0.16134632 0.07235879 0.6768262 -0.5390461 0.06566788 0.0275502 0.269225 -0.04802097
-0.48022857 -0.11738632 -0.39198357 -0.010596122 0.30883121 0.35237402 -0.49490544 0.6176142
0.08387313 -0.26133966 0.014045721 0.19895197 0.0833326 0.36217073 0.0028385806 -0.08456802
-0.30739117 0.07985655 -0.15523995 0.09934009 -0.2790935 -0.29428658 0.08109119 -0.23020211
0.26993722 -0.061953574 -0.22659533 -0.17053443 -0.009358494 -0.1958731 0.12137376 -0.20397307
-0.17798255 -0.19904992 0.071952716 0.24571986 -0.13626672 -0.12573084 -0.41487774 0.020320931
0.27912444 -0.48182064 -0.66505015 0.33763587 0.36858222 -0.697419 -0.6693728 0.16415507
0.1264365 0.6118039 -0.37022284 -0.033243444 -0.019028129 0.2403762 0.50720614 0.25796154
0.34618083 -0.04000863 -0.3520664 -0.10756184 -0.25005403 -0.018336674 0.6347242 0.19388263
-0.099264756 -0.032726422 0.24000823 0.33899093 0.008810446 -0.3178323 -0.026567038 -0.62876916
0.09924443 -0.11132185 -0.036279093 -0.19967128 -0.12769523 -0.040965766 0.020915171 0.15996033
0.084130034 0.036090378 0.07158145 -0.40036893 -0.46862102 0.67538375 -0.44596303 -0.44877553
-0.07355278 0.39826366 -0.512604 -0.041374225 -0.30929992 0.43616566 -0.7151289 0.2548875
00000000: 6813 fd3e 1491 673d e779 cbbd a7eb c5be
00000010: 8941 2dbe 51a9 a93e 6b13 fabd 493c 103f
00000020: ff8a ab3e 30cf f7bd a58f f5be d939 713d
00000030: 5e5b 11bf 62c4 b73e 8a6c 22bf b4fe 3cbc
00000040: 41df ffbd e19d 7c3e 7563 a83e c56e 2dbe
00000050: b272 29bd 58ea f8bd 4478 7fbe 2285 89be
00000060: f11d 2ebe 84d3 0d3d e15d e23e 5df8 de3e
00000070: f321 89bc beaa 82bf 617d f8be a4b2 df3d
00000080: d260 d73e 2723 89bd 57f3 db3c c2c0 5dbf
00000090: f681 0a3f 7600 bcbe 4612 0cbe 3a7d ac3e
000000a0: e0a9 9cbe d8a0 dd3e 606d eb3d 3c36 9ebd
000000b0: 7bd5 9a3e 3cda 80bd 4020 fd3e 982a e8bd
000000c0: e89b 8ebe e24e b53d b0af 0bbe 5bbd 393e
000000d0: 1840 f93e 28b9 c03d 96a2 8a3e 8538 09be
000000e0: 5b33 733d 1b9c bdbd 05c8 533e e381 f93d
000000f0: 0079 f1be 19e8 febd f58d ba3c ef54 be3e
00000100: 6e70 d0be 8e52 edbe 1cad 923e 4225 9b3d
00000110: 1f85 16be c4d4 dabe a007 853c e571 b3bc
00000120: 614f 50be 177a 033f 811e 98be 093c 4a3d
00000130: fdc9 303e 138e dcbe 4f32 0a3d 0adb c43e
00000140: 6813 99be 2980 15be 6db4 493d d01f 65be
00000150: 78df 29be e1da 5b3e bda9 813e 8440 75be
00000160: e418 093f a74a 42be fc40 d93b 7fb7 5d3e
00000170: 47b2 87bc a4b0 0abe 2346 bcbe 7231 233d
00000180: 843f 393e 059e 943e 3c6a 3abc a62c b63e
00000190: a492 a73d c12f a83d cc18 15be 1adc 23bb
000001a0: e873 74be 2d14 243c 9504 e23e 3228 953e
000001b0: f0dd e33e 0603 693e dafb 4abd fff0 963d
000001c0: 5191 50bd 6ca4 963e 96ed 4fbd 8a27 8bbe
000001d0: 2761 41bf e76f d13e 2cc1 853e b36f 2dbf
000001e0: c53a bdbe f2fe 813e 5031 203e 64fd 9bbe
000001f0: e967 9f3d ee91 a9be d243 aabe 4c25 bdbd
00000200: f3f6 0dbf a448 a2bd d43d 08bd 91f6 a53e
00000210: 8801 84be 936b 94be f8fd cdbe 8fc0 abbe
00000220: ae31 053f 655f 26be 99ce f8bd a003 44bf
00000230: 70a2 0a3e 55e5 acbe f4da 5ebe 62e5 413e
00000240: ef81 863d c544 633e 95a7 713c 532e 0fbf
00000250: 6597 19be 7c6b 9fbe 1de1 86bd f0a7 e13e
00000260: f837 25be d830 943d 7b44 2d3f edfe 09bf
00000270: e27c 863d f5b0 e13c dcd7 893e a3b1 44bd
00000280: 85e0 f5be 3d68 f0bd 12b2 c8be 5b9b 2dbc
00000290: 201f 9e3e 5e6a b43e 3f64 fdbe f71b 1e3f
000002a0: adc5 ab3d 50ce 85be 0620 663c 11ba 4b3e
000002b0: 48aa aa3d 716e b93e 7b07 3a3b 0032 adbd
000002c0: 6062 9dbe d58b a33d 39f7 1ebe d172 cb3d
000002d0: 58e5 8ebe bbac 96be 2313 a63d 1aba 6bbe
000002e0: 3635 8a3e 08c3 7dbd 9b08 68be 94a0 2ebe
000002f0: 5e54 19bc f592 48be ce92 f83d 51de 50be
00000300: 0f41 36be bed3 4bbe f25b 933d fd9d 7b3e
00000310: 8189 0bbe 96bf 00be db6a d4be 1578 a63c
00000320: 66e9 8e3e 32b1 f6be ba40 2abf 9cde ac3e
00000330: cfb6 bc3e 0d8a 32bf 045c 2bbf 4418 283e
00000340: 9278 013e 2e9f 1c3f d98d bdbe 472a 08bd
00000350: e1e0 9bbc 2e25 763e 43d8 013f 8913 843e
00000360: 9d3e b13e 17e0 23bd 0c42 b4be 6249 dcbd
00000370: 1507 80be cb36 96bc 497d 223f 2b89 463e
00000380: 524b cbbd 240c 06bd b8c4 753e 3890 ad3e
00000390: b059 103c eaba a2be 1ea3 d9bc 04f7 20bf
000003a0: aa40 cb3d b6fc e3bd 6399 14bd a176 4cbe
000003b0: 8ac2 02be b8cb 27bd 4b56 ab3c a4cc 233e
000003c0: 5e4c ac3d 81d3 133d 4c99 923d 28fd ccbe
000003d0: 18ef efbe f3e5 2c3f 4455 e4be e8c5 e5be
000003e0: d7a2 96bd 37e9 cb3e 043a 03bf 0578 29bd
000003f0: 8f5c 9ebe 1b51 df3e b012 37bf 9d80 823e

linear1.bias f4 [256]
-0.30288172 -0.003322541 0.7505156 -0.25004727 -0.27239007 0.12700182 -0.24815209 -0.25294974
-0.31787002 -0.33970374 0.37184545 -0.21596591 0.1716977 -0.15367521 0.035452094 -0.11125704
-0.064794935 -0.1195934 0.23949608 -0.14904925 -0.23149818 -0.35097963 -0.089427814 -0.16798407
-0.177708 -0.3711903 -0.17982936 0.026838161 -0.13855566 -0.06149964 -0.059673853 -0.2838606
-0.2189069 -0.09056268 -0.085663706 0.10510093 0.050977282 0.35644636 -0.09985369 -0.25689822
-0.19478714 -0.18846388 -0.06470563 -0.31782797 -0.22716185 0.10749298 0.05040673 0.24657625
-0.094946936 0.00859355 -0.13784282 -0.15360439 0.12881769 0.10038763 -0.11898529 0.14785118
0.0048657926 0.08168042 -0.054058623 -0.2676579 -0.47921395 0.27033803 0.5988558 0.33669388
-0.026146835 -0.12580639 -0.25508323 0.40798998 -0.24558353 -0.13700347 -0.029466936 -0.4403985
-0.26783523 0.10600942 -0.23345116 -0.14532043 -0.18917893 -0.008394683 -0.17444949 -0.38833606
0.57387435 -0.18773636 0.041603874 -0.2026857 0.22975872 0.12690338 -0.0254413 -0.039463084
-0.07861637 -0.01920239 1.0673612 0.34372333 0.012799316 -0.3826334 -0.17327768 0.37220657
0.0789612 -0.31759825 0.0011952965 -0.20869382 -0.23393287 -0.25834325 -0.13014945 0.05490991
0.4200383 -0.3163292 -0.045108475 -0.16851433 -0.566838 -0.26326826 -0.14401655 0.16445221
0.042586777 0.50413924 -0.20593083 -0.29778302 -0.1617159 0.0027083303 -0.15363325 -0.34915382
-0.33378845 0.65204006 -0.06582994 -0.36661547 -0.30345714 -0.06939708 0.010139789 0.03963952
-0.46551797 -0.13342889 -0.27134606 -0.33934507 -0.19078252 -0.14307675 0.025806505 0.29123706
-0.5016294 0.010855315 0.20600292 0.07728067 -0.11921637 0.030746773 -0.019174242 0.28333429
-0.09602211 0.32108593 -0.14025313 -0.16731946 -0.19521713 -0.28562394 -0.008975027 0.11272504
0.3778332 0.014257557 -0.20134038 0.102130614 -0.08602044 0.14763637 -0.34601715 -0.15239775
-0.266173 -0.07900678 -0.1284683 -0.055078033 -0.27852556 0.009873041 -0.29544216 -0.039106295
0.15261903 -0.13278724 0.017215926 -0.0027248408 -0.12538897 0.17694579 -0.032759856 0.09290971
0.027930008 0.3773175 0.07302515 -0.11327217 0.26946506 0.16793594 0.2526494 -0.40516633
-0.2795475 -0.21625586 -0.21029116 -0.12506862 -0.25500923 -0.20067212 -0.16772695 0.049082745
-0.29436916 -0.08034423 0.26410672 -0.026555477 0.10477973 0.40618166 -0.1618197 -0.22425248
0.29789504 0.08659132 -0.21553878 0.13893925 -0.33855593 0.35359693 -0.0059522064 -0.35480934
-0.2279481 -0.16294526 -0.31938344 -0.16956809 -0.039942622 -0.22559555 -0.2836709 -0.2598882
-0.3253198 -0.23823297 -0.19710733 -0.30342656 -0.2349439 -0.13529097 -0.26045895 0.11506899
-0.23837748 -0.17419851 -0.21917537 -0.28002015 -0.29778454 -0.054671403 -0.23935226 -0.080010414
-0.25210336 0.07141694 -0.36067143 -0.22554474 -0.2727204 0.40954262 -0.2086195 0.072570294
0.07779358 -0.15614745 -0.31430972 0.013946177 0.13876185 -0.124835424 0.05363315 -0.17578635
0.23316962 -0.2601822 -0.1981612 0.15011308 -0.3488752 -0.34818026 -0.11939184 -0.21543582
00000000: 5013 9bbe fdbe 59bb ca21 403f 3206 80be
00000010: b676 8bbe c40c 023e 951b 7ebe a182 81be
00000020: dcbf a2be a6ed adbe 8762 be3e 2b26 5dbe
00000030: 86d1 2f3e 095d 1dbe 3736 113d bbda e3bd
00000040: 35b3 84bd 62ed f4bd 763e 753e 5ea0 18be
00000050: dc0d 6dbe 9ab3 b3be ee25 b7bd 0404 2cbe
00000060: 16f9 35be a80c bebe 3025 38be b4db db3c
00000070: 89e1 0dbe 0ce7 7bbd 926c 74bd 2d56 91be
00000080: 2129 60be ed78 b9bd 7470 afbd 283f d73d
00000090: 8ecd 503d 2380 b63e 1780 ccbd 2a88 83be
000000a0: 4876 47be adfc 40be 6384 84bd 59ba a2be
000000b0: 1e9d 68be 4825 dc3d 4a77 4e3d 7c7e 7c3e
000000c0: 8a73 c2bd f6cb 0c3c ab26 0dbe 784a 1dbe
000000d0: c9e8 033e 0898 cd3d 8fae f3bd 4d66 173e
000000e0: 3a71 9f3b 1048 a73d 936c 5dbd 750a 89be
000000f0: 885b f5be bf69 8a3e 9d4e 193f 2463 ac3e
00000100: e331 d6bc 64d3 00be 459a 82be 10e4 d03e
00000110: 407a 7bbe a34a 0cbe a564 f1bc ea7b e1be
00000120: b321 89be 771b d93d d20d 6fbe e1ce 14be
00000130: 1fb8 41be da89 09bc e3a2 32be fcd3 c6be
00000140: 6ee9 123f f63d 40be d368 2a3d d78c 4fbe
00000150: df45 6b3e f6f2 013e 466a d0bc 0ba4 21bd
00000160: 9f01 a1bd 554e 9dbc 4b9f 883f 81fc af3e
00000170: 39b4 513c 86e8 c3be b46f 31be dc91 be3e
00000180: 69b6 a13d 3d9c a2be 7fab 9c3a d5b3 55be
00000190: 198c 6fbe 9145 84be e645 05be 37e9 603d
000001a0: 430f d73e e7f5 a1be aac3 38bd 058f 2cbe
000001b0: 4c1c 11bf 19cb 86be 1379 13be 2966 283e
000001c0: 796f 2e3d 450f 013f 88df 52be 0477 98be
000001d0: da98 25be 3e7e 313b 0952 1dbe 4ac4 b2be
000001e0: 52e6 aabe 19ec 263f d9d1 86bd 06b5 bbbe
000001f0: bc5e 9bbe 0e20 8ebd 5c21 263c 0d5d 223d
00000200: 5f58 eebe 95a1 08be dfed 8abe a3be adbe
00000210: 7e5c 43be b682 12be 2a68 d33c 061d 953e
00000220: c96a 00bf 7eda 313c 6ef2 523e 5445 9e3d
00000230: b627 f4bd a8e0 fb3c 4d13 9dbc 3111 913e
00000240: 3da7 c4bd 6065 a43e 849e 0fbe cb55 2bbe
00000250: 00e7 47be 4d3d 92be fe0b 13bc 63dc e63d
00000260: 5a73 c13e 8798 693c 2c2c 4ebe db29 d13d
00000270: 7c2b b0bd fd2d 173e 2929 b1be 280e 1cbe
00000280: d447 88be 4fce a1bd 328d 03be 8199 61bd
00000290: e79a 8ebe 89c2 213c 3244 97be ec2d 20bd
000002a0: 2a48 1c3e 61f9 07be 6a08 8d3c 3e93 32bb
000002b0: f765 00be 4731 353e 332f 06bd 7247 be3d
000002c0: 79cd e43c c22f c13e 368e 953d 3dfb e7bd
000002d0: 53f7 893e 66f7 2b3e 435b 813e f671 cfbe
000002e0: da20 8fbe 2d72 5dbe 9156 57be fd11 00be
000002f0: 9290 82be fe7c 4dbe 9dc0 2bbe fd0a 493d
00000300: 8eb7 96be 848b a4bd ff38 873e df8a d9bc
00000310: c196 d63d 0bf7 cf3e 10b4 25be 71a2 65be
00000320: b385 983e ca56 b13d 33b6 5cbe 1746 0e3e
00000330: 3457 adbe a80a b53e ba0a c3bb 92a9 b5be
00000340: 3a6b 69be 1fdb 26be 3a86 a3be 42a3 2dbe
00000350: e09a 23bd 8502 67be 503d 91be 1110 85be
00000360: 5190 a6be 58f3 73be 81d6 49be ba5a 9bbe
00000370: 2295 70be b789 0abe e05a 85be 4aa9 eb3d
00000380: 3a19 74be 1861 32be 826f 60be cd5e 8fbe
00000390: 3777 98be 1fef 5fbd c218 75be 80dc a3bd
000003a0: b113 81be 0b43 923d eda9 b8be 33f5 66be
000003b0: 02a2 8bbe 92af d13e 5aa0 55be bc9f 943d
000003c0: 3e52 9f3d 1ee5 1fbe 34ed a0be 827e 643c
000003d0: 9617 0e3e b7a9 ffbd 6fae 5b3d 5601 34be
000003e0: 04c4 6e3e 9a36 85be c5ea 4abe 3eb7 193e
000003f0: c59f b2be af44 b2be b683 f4bd 359b 5cbe

linear2.weight f4 [3, 256]
-0.694848 -0.0556324 0.50527114 -0.17954257 -0.10495882 0.19312286 -0.08614482 0.023760425
-0.14120215 -0.1330478 0.3796175 -0.005827546 0.23834325 -0.072156526 -0.26455674 -0.01897514
0.067913 -0.037475996 0.66648453 -0.34380627 0.10580633 0.01758008 0.42042485 0.040765226
-0.04202172 -0.1225377 0.051338926 -0.05588203 0.09179346 -0.23088151 -0.0010405693 -0.057606332
0.07052866 0.12860605 -0.0026026366 -0.1277552 0.24913725 0.13016115 0.5222012 0.018381871
0.38512397 -0.022367347 0.32608998 -0.000117632066 -0.08523758 0.12885605 0.06864798 0.3300261
-0.037884153 0.26637667 -0.07273844 -0.03512882 0.017670913 0.21789895 0.033791516 0.09967083
-0.070369445 -0.018114788 0.03422502 -0.25582898 0.4741847 0.069139406 0.3539274 0.21459074
0.06337812 0.22857468 0.06584324 0.12952791 -0.017441595 -0.08052134 -0.0138128465 -0.23072337
-0.0061188526 0.37077683 0.2876765 0.15133847 -0.086074635 -0.01908763 0.23898447 -0.10857672
0.2987513 -0.5256172 -0.26966327 -0.3845822 0.3184757 0.04275436 0.047855992 -0.15077084
-0.2924215 0.1718545 0.39076078 0.41223082 -0.27587745 -0.09979724 -0.04043946 0.29924694
0.0025042966 -0.061228737 -0.17025526 -0.34799233 -0.06269325 -0.07764107 -0.19881779 0.20926766
0.38226837 0.40235606 0.20695038 -0.22258554 -0.07966154 -0.15153724 -0.0076428875 0.29544398
0.5989864 0.3199456 -0.40736434 -0.010774574 -0.11931124 0.0069363583 -0.11306229 -0.19486937
0.035913166 0.35374868 -0.049382254 -0.09935433 -0.01247634 0.2965292 -0.059759427 -0.14444941
-0.18919285 -0.005690871 -0.05122794 -0.2656299 -0.567427 0.42034167 0.34277537 0.35490483
0.013812084 -0.1262533 0.15235385 -0.050253708 0.11201025 -0.12296281 -0.33596638 0.1402218
-0.013657522 0.12544675 -0.0067024 -0.21230465 0.024496758 -0.10743374 0.542493 0.29637864
0.1617853 0.014845326 -0.006840178 0.2582813 -0.026350906 0.34910092 -0.038088612 0.05910037
-0.1090581 -0.051240377 -0.019769136 -0.07152123 -0.02269572 -0.2504294 0.013785414 -0.07755848
0.2944835 0.01959728 0.11893203 -0.042828053 -0.05663549 0.60885847 0.318836 0.038491465
0.29649228 0.18671983 0.042211637 0.042651188 0.12411751 0.45919228 0.35817337 0.0054184445
0.0028929007 -0.043196466 0.050509673 -0.020032171 -1.1032642 -0.10934034 0.013820815 0.011216715
0.033362962 -0.056217488 0.47197375 -0.39488673 0.08797913 0.09777976 -0.43287748 -0.108655766
0.40188968 0.29442194 -0.13851184 0.08325539 0.016013607 0.35139528 -0.39157867 0.008086474
-0.40090093 0.012999968 -0.003969345 -0.0018110423 0.41129816 -0.20797536 0.003685736 -0.14580491
-0.061777923 -0.33379805 -0.04375502 -0.0017736746 -0.25465992 0.03982025 -0.032820642 -0.426469
-0.040234484 -0.27440676 0.0105585875 -0.006228222 0.16114536 0.33062178 -0.39911976 0.18732868
-0.18861489 0.13631442 0.008572871 -0.05311659 -0.050733592 0.24794997 0.22566266 0.13149174
-0.17313907 0.0002149722 -0.11651805 -0.032383755 -0.28422314 0.6506747 -0.05199289 0.478922
0.40580496 -0.14501539 -0.51185507 0.23675512 -0.33000764 -0.31793526 -0.37902078 0.0011350303
00000000: 8fe1 31bf cdde 63bd 7359 013f 02da 37be
00000010: a6f4 d6bd 00c2 453e b26c b0bd 39a5 c23c
00000020: 4c97 10be af3d 08be 3a5d c23e 00f5 bebb
00000030: 4110 743e cdc6 93bd fb73 87be c171 9bbc
00000040: f915 8b3d 6e80 19bd bb9e 2a3f 6007 b0be
00000050: fdb0 d83d 1a04 903c ed41 d73e 70f9 263d
00000060: f81e 2cbd 0cf5 fabd c448 523d 8ee4 64bd
00000070: 36fe bb3d 346c 6cbe b663 88ba 9ef4 6bbd
00000080: 5571 903d 4eb1 033e ff90 2abb 42d2 02be
00000090: d61d 7f3e f748 053e faae 053f 9495 963c
000000a0: f82e c53e ba3b b7bc 44f5 a63e 3cb1 f6b8
000000b0: 0a91 aebd d7f2 033e 5097 8c3d 2ef9 a83e
000000c0: 6a2c 1bbd 8662 883e e4f7 94bd 3de3 0fbd
000000d0: 97c2 903c e720 5f3e f968 0a3d 3820 cc3d
000000e0: db1d 90bd 7765 94bc 892f 0c3d 04fc 82be
000000f0: 56c8 f23e f698 8d3d f935 b53e adbd 5b3e
00000100: 63cc 813d 7b0f 6a3e d2d8 863d f7a2 043e
00000110: ade1 8ebc 5fe8 a4bd 474f 62bc bf42 6cbe
00000120: a880 c8bb 76d6 bd3e 564a 933e 79f8 1a3e
00000130: e647 b0bd a95d 9cbc 58b8 743e 795d debd
00000140: eef5 983e d98e 06bf 4e11 8abe f5e7 c4be
00000150: 3f0f a33e 321f 2f3d a504 443d ac63 1abe
00000160: 45b8 95be a0fa 2f3e cc11 c83e eb0f d33e
00000170: cf3f 8dbe 7f62 ccbd d9a3 25bd e536 993e
00000180: 201f 243b fcca 7abd 6557 2ebe 0d2c b2be
00000190: 5265 80bd 4802 9fbd e496 4bbe 434a 563e
000001a0: aeb8 c33e 9d01 ce3e cdea 533e 77ed 63be
000001b0: 9725 a3bd 942c 1bbe 3071 fabb 6f44 973e
000001c0: 2c57 193f e9cf a33e 0f92 d0be d787 30bc
000001d0: 7459 f4bd 644a e33b 348d e7bd d68b 47be
000001e0: af19 133d 8c1e b53e 0c45 4abd 487a cbbd
000001f0: 9069 4cbc add2 973e 4dc6 74bd 8cea 13be
00000200: c5bb 41be 7c7a babb 63d4 51bd a400 88be
00000210: e542 11bf 0637 d73e 4180 af3e 16b6 b53e
00000220: 144c 623c 8c48 01be a602 1c3e d5d6 4dbd
00000230: a165 e53d edd3 fbbd c903 acbe 4e96 0f3e
00000240: cdc3 5fbc 1d75 003e ce9f dbbb 6466 59be
00000250: 6dad c83c 3806 dcbd d2e0 0a3f f1be 973e
00000260: 0cab 253e cf39 733c 9223 e0bb 723d 843e
00000270: dbdd d7bc 5bbd b23e ce02 1cbd 3b13 723d
00000280: da59 dfbd 6ee1 51bd e2f2 a1bc b979 92bd
00000290: 60ec b9bc 4838 80be 38dc 613c fbd6 9ebd
000002a0: 8bc6 963e 7a8a a03c a392 f33d 786c 2fbd
000002b0: 9efa 67bd 26de 1b3f 793e a33e 3aa9 1d3d
000002c0: d6cd 973e 7c33 3f3e 1ce6 2c3d 03b3 2e3d
000002d0: 5231 fe3d 401b eb3e 8062 b73e 358d b13b
000002e0: d296 3d3b c7ee 30bd 3be3 4e3d 821a a4bc
000002f0: c337 8dbf d4ed dfbd b370 623c 50c6 373c
00000300: 9aa7 083d 4f44 66bd 8ba6 f13e 982e cabe
00000310: 672e b43d c140 c83d 1ea2 ddbe ea86 debd
00000320: 7cc4 cd3e 79be 963e 0cd6 0dbe cd81 aa3d
00000330: f82e 833c 15ea b33e 007d c8be 217d 043c
00000340: e342 cdbe d1fd 543c 4711 82bb 7f60 edba
00000350: ac95 d23e 7ef7 54be 648c 713b e24d 15be
00000360: d90a 7dbd 94e7 aabe 7738 33bd a57a e8ba
00000370: c962 82be 8f1a 233d f06e 06bd 255a dabe
00000380: eacc 24bd 0b7f 8cbe edfd 2c3c 1d16 ccbb
00000390: 4a03 253e 4247 a93e 6d59 ccbe 17d3 3f3e
000003a0: 4324 41be 0296 0b3e 3a75 0c3c c890 59bd
000003b0: 07ce 4fbd 99e6 7d3e 1d14 673e c5a5 063e
000003c0: 5e4b 31be 296a 6139 04a1 eebd d4a4 04bd
000003d0: b285 91be 9e92 263f 7ff6 54bd 4435 f53e
000003e0: abc5 cf3e ea7e 14be ef08 03bf ef6f 723e
000003f0: c3f6 a8be 69c8 a2be 030f c2be 4cc5 943a

linear2.bias f4 [3]
0.21350634 0.004796016 0.033243153
00000000: 68a1 5a3e e627 9d3b f929 083d
