model/model.pth (torch, 16799 bytes, 4 tensors)

linear1.weight f4 [256, 11]
0	0xbecbb302	-0.3978501
1	0x3dd91ea8	0.1060155
2	0xbeafbc8b	-0.34323534
3	0xbdddb7b8	-0.10826057
4	0xbd2a7a6f	-0.041620668
5	0xbe1d3d88	-0.15355504
6	0xbedc1e04	-0.4299165
7	0x3e76d73c	0.24105543
8	0x3e209647	0.15682326
9	0x3dc13553	0.09433999
10	0x3e4cc884	0.19998366
11	0x3e3eac36	0.18620381
12	0x3ec43aaa	0.38326007
13	0x3eebea8a	0.46077377
14	0xbeceae34	-0.4036728
15	0x3e5ea607	0.21743022
16	0xbe7b270b	-0.24526612
17	0x3e170b1c	0.14750332
18	0x3d4e0821	0.05030072
19	0xbe342877	-0.17593561
20	0x3e98c4e3	0.29837713
21	0xbe5fcb77	-0.2185496
22	0x3ed00e99	0.40636137
23	0x3df7856f	0.12085997
24	0xbe0c54b1	-0.13704182
25	0xbe5fc925	-0.21854074
26	0x3e44b12a	0.19208208
27	0xbe9b7b35	-0.30367437
28	0x3d3d319a	0.04618988
29	0xbf331e5f	-0.6996822
30	0xbdf62e90	-0.120206
31	0x3ed7ec27	0.42172357
32	0xbe6a61a0	-0.22888803
33	0xbdc11d59	-0.09429426
34	0x3ecd3fe9	0.40087822
35	0xbf2c6bef	-0.67352194
36	0xbe48d84f	-0.19613765
37	0x3e0a9edb	0.13537161
38	0x3e0e637a	0.13905135
39	0xbe0c7f61	-0.13720466
40	0x3e538808	0.2065736
41	0xbe63a0e7	-0.22229348
42	0x3e8fff19	0.28124312
43	0xbe743dab	-0.2385165
44	0xbe2910dc	-0.16510338
45	0x3e343a1c	0.17600292
46	0xbebe61eb	-0.3718408
47	0x3e515696	0.20443186
48	0x3ded1ad0	0.1157738
49	0xbed8e1c4	-0.42359746
50	0xbe80a464	-0.2512542
51	0xbed7496b	-0.420482
52	0xbec0a660	-0.37626934
53	0x3ea00f8f	0.3126187
54	0x3e809bb4	0.25118792
55	0x3ec84011	0.3911138
56	0xbe6aba52	-0.22922638
57	0x3e2d0538	0.16896522
58	0xbec9ed7f	-0.39439008
59	0x3dbc55d3	0.09196057
60	0xbe02dc85	-0.12779434
61	0xbb1fbe13	-0.0024374768
62	0x3e32bade	0.17454097
63	0xbe4b47df	-0.19851635
64	0x3c6e9950	0.01456292
65	0x3e3de2e3	0.18543582
66	0xbdd2e5ff	-0.102977745
67	0xbe8b1979	-0.27167872
68	0xbe5576d3	-0.20846109
69	0x3e5bbef3	0.2145956
70	0x3dae13f3	0.08499899
71	0x3eba8dfe	0.36436456
72	0x3dbbc429	0.09168274
73	0x3e10046d	0.14064188
74	0x3e2b1ba3	0.16709761
75	0xbe4e384d	-0.20138665
76	0xbf52c3e4	-0.82330155
77	0xbec0e786	-0.37676638
78	0xbe2bb348	-0.16767609
79	0xbe886fff	-0.26647946
80	0xbe96174a	-0.29314643
81	0xbedafbf2	-0.42770344
82	0x3df0227b	0.11725327
83	0x3ea62999	0.32453611
84	0xbec5f7d5	-0.38665643
85	0xbeb2665d	-0.34843722
86	0xbed755cd	-0.42057648
87	0x3eb7ab79	0.3587301
88	0xbe5685e2	-0.2094951
89	0xbd150cf5	-0.03638931
90	0xbc4e4003	-0.012588504
91	0xbe47c4fd	-0.19508739
92	0xbe4ebc7d	-0.2018909
93	0xbe846853	-0.25860843
94	0xbd379a2a	-0.044824757
95	0x3d08ed2a	0.033429302
96	0xbcfebb81	-0.031095268
97	0x3e180fed	0.14849825
98	0xbe6a0a14	-0.22855407
99	0xbe283776	-0.16427407
100	0x3f178491	0.59186655
101	0xbf0790e4	-0.5295546
102	0x3de68126	0.11255102
103	0xbd9216be	-0.07133244
104	0xbe5c0cd6	-0.21489272
105	0x3db6f94d	0.08934269
106	0xbeb71a40	-0.35762215
107	0xbda577b1	-0.0807947
108	0xbe5a0fbf	-0.21295069
109	0xbd89fd04	-0.06737712
110	0xbd1a20c2	-0.037628897
111	0x3d9e1a7e	0.07719897
112	0x3e6d8f38	0.23199165
113	0x3e4a8cee	0.19780323
114	0xbf0ba275	-0.54544765
115	0xbdf89899	-0.12138481
116	0xb975af50	-0.0002343033
117	0x3e6050c5	0.21905811
118	0xbee6c53d	-0.45072356
119	0xbec6b980	-0.388134
120	0xbee36ec6	-0.4442045
121	0x3e820417	0.25393745
122	0x3ea5e59c	0.3240174
123	0x3eea10b4	0.45715868
124	0xbc916f88	-0.017753378
125	0x3bce2cfa	0.0062919827
126	0x3b5614f1	0.003266629
127	0xbd17110f	-0.036881503
128	0x3ebb6f31	0.3660827
129	0x3e890313	0.26760158
130	0x3ec77275	0.3895451
131	0x3ec4c74d	0.38433304
132	0x3e5b40fb	0.21411507
133	0x3f167ec7	0.58787197
134	0xbf4b874b	-0.79503316
135	0x3e7e0ed8	0.2481035
136	0x3e3a8274	0.18213826
137	0x3ddb02fc	0.106939286
138	0x3e5823e6	0.21107444
139	0xbe344701	-0.17605211
140	0xbe696ff8	-0.22796619
141	0xbd01f8ed	-0.031731535
142	0x3d2ebceb	0.042660635
143	0x3e2d839e	0.16944739
144	0x3eea82e0	0.45802975
145	0x3e932b93	0.28744182
146	0xbe9af381	-0.30263904
147	0x3ebc3d0f	0.36765334
148	0xbec2075d	-0.37896243
149	0xbe7d57c2	-0.24740508
150	0x3e2e116e	0.16998836
151	0xbe847740	-0.2587223
152	0xbe63be10	-0.22240472
153	0x3dd1207b	0.10211273
154	0xbf034557	-0.5127768
155	0x3ecd9d5b	0.40159115
156	0x3f00b35a	0.5027367
157	0xbe0a5bf8	-0.13511646
158	0xbe896f4a	-0.2684272
159	0xbe97dca8	-0.29660535
160	0x3dc798de	0.09745954
161	0x3e445fad	0.19177122
162	0xbd553ec8	-0.052061826
163	0xbd35deaa	-0.044401802
164	0x3e58e9d8	0.21182954
165	0x3e1ccf57	0.15313469
166	0xbee35621	-0.4440165
167	0x3f25bc3b	0.6474034
168	0x3dfed2bd	0.12442539
169	0xbdfc0576	-0.12305729
170	0xbe80f0e1	-0.25183776
171	0x3e88e568	0.26737523
172	0x3d4d4297	0.050112333
173	0xbe8f44ba	-0.27982122
174	0xbc75f314	-0.015011568
175	0xbe07a754	-0.13247424
176	0xbd4a0daa	-0.049329437
177	0xbd79df42	-0.06100393
178	0xbe0aab68	-0.13541949
179	0xbebc1bbf	-0.3673992
180	0x3ecf4837	0.40484783
181	0xbebad99f	-0.36494157
182	0x3db75fa1	0.08953787
183	0xbf011946	-0.5042919
184	0x3e5a0995	0.21292718
185	0xbe788380	-0.24268913
186	0xbefa9b28	-0.489465
187	0x3ea19df2	0.31565815
188	0x3e6d5b66	0.23179397
189	0x3e3c6205	0.18396766
190	0xbe2c7726	-0.16842327
191	0xbd7d45bf	-0.061834093
192	0xbd6c5380	-0.05769682
193	0xbdb53d04	-0.088495284
194	0x3e294e98	0.16533887
195	0x3dc73acb	0.09728011
196	0x3e6ea6f2	0.23305872
197	0x3e78a967	0.24283372
198	0x3dc6a9bd	0.09700344
199	0xbf50970e	-0.8148049
200	0x3d8330d2	0.06405796
201	0x3e837f97	0.2568328
202	0xbeb626bf	-0.35576436
203	0xbe30b591	-0.17256762
204	0xbee0807c	-0.43848026
205	0xbe44e01a	-0.19226113
206	0x3ea966fd	0.33086386
207	0x3e2c3f7b	0.16821091
208	0x3ee3162c	0.44352853
209	0xbe41d9d2	-0.18930748
210	0x3d37d5fe	0.044881813
211	0xbe61a2cf	-0.22034763
212	0x3dc91623	0.09818675
213	0x3e7990f1	0.24371697
214	0xbe83bc69	-0.25729683
215	0xbef26ae5	-0.4734718
216	0xbf194470	-0.5987005
217	0xbefb9adc	-0.49141586
218	0x3d9b059b	0.075694285
219	0x3ea01fc4	0.31274235
220	0xbdf91e0a	-0.121639326
221	0x3ebac063	0.36474904
222	0x3e54a2aa	0.20765176
223	0xbe99000c	-0.29882848
224	0x3e838f21	0.25695136
225	0xbeb384ab	-0.35062155
226	0x3d0bc973	0.034127664
227	0xbeb26a35	-0.34846655
228	0x3e78acd7	0.24284683
229	0xbecdbd70	-0.40183592
230	0x3e5ff4dc	0.2187075
231	0x3e5dbf86	0.21655092
232	0x3e378b5b	0.17924254
233	0x3ee0c352	0.43899018
234	0xbeba9d5f	-0.3644819
235	0x3e55ba3f	0.20871828
236	0x3d6ff552	0.058583565
237	0xbe9ce48f	-0.30643126
238	0x3e6ad28d	0.22931881
239	0xbe77edde	-0.24211833
240	0xbe50d6c6	-0.2039443
241	0x3ebf9ba4	0.37423432
242	0x3d1acfff	0.037796017
243	0xbd1057df	-0.03524005
244	0x3d3d313d	0.046189535
245	0x3e2091bf	0.15680598
246	0xbed68260	-0.41896343
247	0xbe42d7af	-0.1902759
248	0x3e907a1d	0.28218165
249	0x3da46cb9	0.0802855
250	0x3f10d36a	0.5657259
251	0x3ed9a7d4	0.42510855
252	0xbe79fec8	-0.24413598
253	0x3f101aa1	0.5629063
254	0xbee4f074	-0.447147
255	0x3e023cc3	0.12718491

linear1.bias f4 [256]
0	0xbe17df8e	-0.14831373
1	0xbda9e28d	-0.08295164
2	0xbdc87e48	-0.09789711
3	0x3d5b58ba	0.053551413
4	0xbc88bff8	-0.0166931
5	0xbe130687	-0.14357959
6	0x3ee43131	0.4456878
7	0x3c93ff7f	0.018066166
8	0xbe631389	-0.22175421
9	0x3ee374e8	0.4442513
10	0x3e0e63cb	0.13905255
11	0xbecbd14c	-0.39808118
12	0x3eb152f2	0.34633595
13	0xbe220c9f	-0.15825127
14	0x3d763c2a	0.06011597
15	0xbded1d88	-0.11577898
16	0x3d66dc30	0.05636233
17	0xbe70a75a	-0.2350134
18	0xbbca7f33	-0.006179714
19	0x3dd9740d	0.10617838
20	0xbca24b76	-0.019811373
21	0xbd1d46c8	-0.03839758
22	0xbe797166	-0.24359664
23	0xbe0b07d0	-0.13577199
24	0x3dfd353b	0.123636685
25	0xbea38ca0	-0.31943226
26	0xbe274a28	-0.16336882
27	0xbe908a61	-0.28230575
28	0x3e5a737f	0.21333121
29	0x3e9548e2	0.29157168
30	0xbdf907a8	-0.121596634
31	0xbdb38c8b	-0.08767041
32	0xbe392a63	-0.18082576
33	0xbde124f7	-0.109933786
34	0xbdbcd00c	-0.09219369
35	0x3d5f3130	0.05449027
36	0xbef0091b	-0.46881947
37	0xbe938f78	-0.28820395
38	0xbe705d0f	-0.23472999
39	0xbe20423a	-0.15650263
40	0xbda5192a	-0.0806144
41	0xbe16b093	-0.14715795
42	0xbdd543cd	-0.104133226
43	0xbda64a13	-0.08119597
44	0xbdcb5826	-0.09928922
45	0xbceaaa1a	-0.028645564
46	0xbe3516a0	-0.17684412
47	0x3c5f0816	0.013612768
48	0xbc172bb4	-0.009226728
49	0xbea747a2	-0.3267184
50	0xbe68da4b	-0.22739522
51	0xbe584b17	-0.21122395
52	0x3ed94aab	0.4243978
53	0x3e20be17	0.15697514
54	0xbd87141b	-0.06595632
55	0xbe489210	-0.19586968
56	0x3d7d94cd	0.061909486
57	0x3ea770ac	0.3270315
58	0xbec7bbc3	-0.39010438
59	0x3da21391	0.07913888
60	0xbe957949	-0.29194096
61	0xbe5e241f	-0.21693467
62	0xbeb80f19	-0.3594902
63	0xbe1a224d	-0.15052147
64	0xbe7b79a3	-0.2455812
65	0xbd894593	-0.06702723
66	0xbe929d35	-0.28635564
67	0xbe0e0700	-0.13869858
68	0xbda41d63	-0.080134176
69	0xbe91626d	-0.28395405
70	0x3e4050d0	0.18780828
71	0xbd758bdc	-0.059947833
72	0xbe681a69	-0.22666325
73	0xbdf8daec	-0.12151131
74	0xbe998c27	-0.2998974
75	0x3e31fa40	0.17380619
76	0xbe7680f2	-0.24072626
77	0xbd9fc65a	-0.078015044
78	0x3eb4c341	0.35305217
79	0xbe575fa4	-0.21032578
80	0x3ec561b9	0.3855112
81	0xbe38fc1d	-0.18064924
82	0x3c8c1699	0.01710062
83	0xbe8d1f94	-0.27563155
84	0xbde223cf	-0.11041986
85	0x3e42ed00	0.19035721
86	0x3c93d5b5	0.01804624
87	0xbdd9357a	-0.10605903
88	0xbd9a3c70	-0.07531059
89	0xbe89cc38	-0.2691362
90	0x3f4c3afa	0.7977749
91	0xbe1e26f8	-0.15444553
92	0x3edd046d	0.4316744
93	0xbd44531b	-0.047930818
94	0x3e0ee66a	0.13955083
95	0xbdc8a2e2	-0.097966924
96	0x3d2dc705	0.042426128
97	0x3e40bf78	0.1882304
98	0xbe79b269	-0.24384464
99	0x3f205834	0.6263459
100	0x3ebe9ee9	0.37230614
101	0x3cecf5d8	0.028925821
102	0x3ca93215	0.020653764
103	0x3e160d92	0.14653614
104	0xbe8d5608	-0.276047
105	0xbe01315d	-0.12616487
106	0x3c810d92	0.015753541
107	0x3c842002	0.016128544
108	0x3eafcbe5	0.34335247
109	0xbe88a9e4	-0.26692116
110	0x3d975be9	0.07390577
111	0xbdb9d0d0	-0.09073031
112	0xbe8527e5	-0.26007
113	0xbe3db171	-0.1852472
114	0xbe36a88e	-0.17837736
115	0xbec0a323	-0.37624463
116	0xbe8772a5	-0.26454654
117	0xbb8a1a21	-0.0042145406
118	0x3cf99df2	0.030470822
119	0xbe262bac	-0.16227597
120	0x3d510b54	0.051036194
121	0x3be07e0d	0.006850964
122	0xbe9d7935	-0.30756536
123	0xbd659bbf	-0.056056734
124	0x3e9b6169	0.30347756
125	0xbeb5c870	-0.35504484
126	0xbc900957	-0.017582579
127	0xbeeb9514	-0.46012175
128	0xbe9f1540	-0.310709
129	0xbe98b78e	-0.2982754
130	0x3d92c1f6	0.07165901
131	0xbe93a0bb	-0.28833565
132	0xbe8ab364	-0.2708999
133	0xbe417f30	-0.18896174
134	0xbdc5a956	-0.09651439
135	0xbe63ba8e	-0.22239134
136	0xbc746ae2	-0.014918061
137	0x3e9c8c2c	0.30575693
138	0xbe741a23	-0.23838095
139	0x3c53da8c	0.012930524
140	0xbeaee7d7	-0.34161255
141	0xbd83b9a1	-0.0643189
142	0xbe28ed19	-0.16496696
143	0x3dda3d84	0.106562644
144	0xbe561f98	-0.2091049
145	0xbe5851a1	-0.21124889
146	0x3e3d66fc	0.18496317
147	0xbd849f90	-0.06475747
148	0x3e651e50	0.22374845
149	0xbe897871	-0.26849702
150	0xbd6a7eed	-0.057249952
151	0xbd422f53	-0.047408413
152	0xbe04a0e5	-0.12952001
153	0xbcc7198b	-0.024304172
154	0x3d8a0ede	0.06741117
155	0x3de6d5e2	0.11271264
156	0xbe4ef0f0	-0.20209098
157	0xbeb78f8a	-0.358517
158	0xbd620117	-0.05517682
159	0xbe41f499	-0.18940963
160	0xbe8446f0	-0.2583537
161	0xbd80548c	-0.06266126
162	0xbde111ed	-0.10989747
163	0xbebb0bff	-0.3653259
164	0xbe4fcee6	-0.20293769
165	0xbe80d09d	-0.2515916
166	0x3e4099ed	0.18808718
167	0xbe2210b8	-0.1582669
168	0xbca6183e	-0.020275231
169	0xbe7d4601	-0.24733736
170	0xbdb7a306	-0.08966641
171	0xbdd4703b	-0.10372969
172	0x3e48162e	0.19539711
173	0xbd244482	-0.040104397
174	0x3e0be4ad	0.13661452
175	0xbeb00a67	-0.34382936
176	0x3ed9d844	0.4254781
177	0xbec3d6be	-0.38249773
178	0xbe3e42e5	-0.18580206
179	0xbe3a3b25	-0.18186624
180	0xbe4363a7	-0.19080983
181	0xbda46af8	-0.08028215
182	0xbec401d6	-0.3828265
183	0xbec696e7	-0.38787004
184	0x3ec3ec77	0.38266346
185	0xbdb4ff4e	-0.08837758
186	0xbe0be6c1	-0.13662244
187	0xbe81d0d4	-0.25354636
188	0xbe474b9b	-0.19462435
189	0xbe2b4110	-0.16724038
190	0xbcfa0bde	-0.030523237
191	0xbe834210	-0.2563634
192	0x3c971a1a	0.018445063
193	0xbe515563	-0.20442729
194	0x3ded87ba	0.115981534
195	0x3d079d07	0.033108737
196	0xbcc735d9	-0.024317669
197	0x3e690e60	0.2275939
198	0x3c91323e	0.017724153
199	0xbde83901	-0.11338998
200	0xbea0b5a9	-0.31388596
201	0xbe107f3d	-0.14111038
202	0x3e222fd3	0.15838556
203	0x3e0e090b	0.13870637
204	0x3d9676bf	0.07346868
205	0x3ccc53db	0.02494233
206	0xbe40b523	-0.18819098
207	0x3e72181c	0.2364201
208	0xbe40b464	-0.18818814
209	0x3e905679	0.28190973
210	0xbdb84eba	-0.08999391
211	0x3f0862f5	0.53275996
212	0xbec99b83	-0.3937646
213	0x3d9bda81	0.07610036
214	0xbe355f51	-0.17712142
215	0xbece3a3d	-0.40278807
216	0xbe054c84	-0.1301747
217	0xbe0cebe1	-0.13761856
218	0xbe504ad6	-0.20341048
219	0x3e6ed11d	0.23321958
220	0xbc9e7b93	-0.019346034
221	0xbe47f0d2	-0.1952546
222	0x3db427fa	0.087966874
223	0x3d8f4590	0.0699569
224	0xbddc6599	-0.10761566
225	0xbe4eb487	-0.20186053
226	0xbe139adb	-0.14414541
227	0x3ea518d2	0.322455
228	0xbe98315e	-0.29725164
229	0x3e0fc811	0.14041163
230	0xbe3e2318	-0.18568075
231	0xbe0dc577	-0.13844858
232	0xbde0302b	-0.10946687
233	0xbe817c95	-0.2529036
234	0xbe3dfd4f	-0.18553661
235	0x3e13b8d9	0.14425983
236	0x3de5cded	0.11220918
237	0xbdd27648	-0.102764666
238	0xbe817ca9	-0.2529042
239	0x3e340f5e	0.17583987
240	0xbe1c1b47	-0.1524478
241	0xbe7e5192	-0.24835804
242	0x3e3e3a02	0.18576816
243	0x3e3ae3cb	0.18250959
244	0xbee6e4e1	-0.45096496
245	0x3e38aa8e	0.18033811
246	0x3c1d6054	0.009605486
247	0xbe41a097	-0.18908916
248	0x3d25344a	0.04033307
249	0x3e2e16c5	0.17000873
250	0x3cc404f1	0.023928137
251	0xbcb5efde	-0.022209104
252	0xbdbcdf89	-0.092223234
253	0xbddc5678	-0.1075868
254	0x3d3d189d	0.04616605
255	0x3e7c9a28	0.24668181

linear2.weight f4 [3, 256]
0	0xbcd87edb	-0.026427677
1	0xbd9fa7a8	-0.0779565
2	0xbe82fa57	-0.2558162
3	0x3cbf9e09	0.023390787
4	0xbe36eb50	-0.17863202
5	0xbd4c43d9	-0.049869392
6	0x3e8e3d8e	0.27781337
7	0x3eb6b88d	0.35687676
8	0x3d21fe10	0.039548934
9	0x3e579d4c	0.21056098
10	0x3e9d8ffd	0.30773917
11	0xbe227d5e	-0.15868136
12	0x3e2c6872	0.16836718
13	0xbdf9f11a	-0.122041896
14	0x3de45b35	0.11150209
15	0xbca70695	-0.02038888
16	0x3e8aed58	0.27134204
17	0xbc057866	-0.008146381
18	0xbee5dce0	-0.44895077
19	0xbecbd780	-0.3981285
20	0x3e80ba48	0.2514212
21	0xbe447336	-0.19184574
22	0xbee9b1a7	-0.4564335
23	0xbe6565e9	-0.22402157
24	0x3df5b634	0.11997643
25	0x3bf9b4ff	0.0076204534
26	0xbd969a48	-0.073536456
27	0xbedccb3e	-0.4312381
28	0x3e4eeb5f	0.20206974
29	0x3e31da28	0.17368376
30	0x3c1270fb	0.008938069
31	0xbe0338f8	-0.128147
32	0xbe974bf7	-0.29550144
33	0x3cf8c9f1	0.03036973
34	0xbd91bd05	-0.07116131
35	0xbc54f670	-0.012998208
36	0xbea45508	-0.32096124
37	0xbef68160	-0.4814558
38	0xbec73843	-0.38910112
39	0xbdc4b27f	-0.09604358
40	0xbf0c1bf2	-0.5473014
41	0xbe78a239	-0.24280633
42	0x3ebdc4a8	0.370641
43	0x3b1b667a	0.0023712204
44	0xbf1b96d2	-0.6077701
45	0xbd858b20	-0.065206766
46	0xbe4d6b82	-0.20060542
47	0x3e23db1f	0.16001557
48	0xbe9ed0d6	-0.31018704
49	0xbe0361f1	-0.1283033
50	0xbe9e3990	-0.30903292
51	0xbe40c9ae	-0.18826935
52	0x3df9b2ed	0.121923305
53	0x3e3dbc72	0.18528917
54	0xbeead79c	-0.45867622
55	0xbe5216b9	-0.2051648
56	0x3e6b00f9	0.2294959
57	0x3f0ac51b	0.5420701
58	0x3ce2464b	0.027621409
59	0xbcdd7af9	-0.027036177
60	0xbec4b82e	-0.38421768
61	0xbe8f3b54	-0.2797495
62	0x3d4b6314	0.049655035
63	0xbe54e3c0	-0.20790005
64	0xbe8decdf	-0.2771978
65	0xbc6d75df	-0.014493435
66	0x3a364600	0.000695318
67	0xbdede428	-0.11615783
68	0xbb9c4386	-0.0047687916
69	0xbd2f69be	-0.042825453
70	0x3f0168af	0.5055036
71	0x3e7f0945	0.2490588
72	0xbd4d6164	-0.050141707
73	0x3a8fb73a	0.001096464
74	0xbe723d02	-0.23656085
75	0x3e15a7e6	0.1461483
76	0xbdf73215	-0.12070099
77	0xbb3b10cb	-0.0028543945
78	0x3f0364a0	0.51325417
79	0x3c1e2ca8	0.009654202
80	0x3e3f412a	0.18677202
81	0x3cb7fb4b	0.022458693
82	0xbdafd295	-0.08585087
83	0xbe50e9c2	-0.20401672
84	0xbed1aa8b	-0.40950426
85	0x3e336acc	0.17521209
86	0xbc03ea0d	-0.0080514075
87	0xbda02a83	-0.078206085
88	0xbe37ee7f	-0.17962073
89	0x3e33e2fa	0.17567053
90	0x3f1208d0	0.57044697
91	0xbe431d53	-0.19054155
92	0x3e43a73b	0.19106762
93	0xbe68b1c8	-0.22724068
94	0x3dc2e9ed	0.09517274
95	0xbcbec3b7	-0.023286683
96	0x3ebfe376	0.37478226
97	0x3de646af	0.112439506
98	0xbc9eea19	-0.019398736
99	0x3e4c0bf4	0.19926435
100	0x3e90944b	0.2823814
101	0xbda092bc	-0.07840487
102	0x3e1f117c	0.15534014
103	0xbecf9c89	-0.40549114
104	0x3d39be54	0.045347527
105	0xbdb961c1	-0.09051848
106	0x3e961bd5	0.2931811
107	0xbedd2586	-0.4319269
108	0x3ed87abb	0.42281136
109	0xbb3c6fd9	-0.002875319
110	0xbbb6a59d	-0.005573942
111	0x3e9f4539	0.311075
112	0xbc422746	-0.011850184
113	0xbed2f746	-0.4120428
114	0x3d9d3ca7	0.07677584
115	0x3c4b0e9f	0.012393623
116	0xbb959060	-0.00456433
117	0x3d25c47e	0.040470593
118	0x3eea9ddf	0.4582357
119	0xbb461065	-0.0030222174
120	0xbd22b73d	-0.03972553
121	0xbe444d7b	-0.19170181
122	0xbe3218e8	-0.17392313
123	0xbee96a4d	-0.45588914
124	0x3e8acc26	0.27108878
125	0xbdcc69a6	-0.09981088
126	0x3e714989	0.23563208
127	0xbea0b04b	-0.313845
128	0xbe250e94	-0.16118842
129	0xbe7704ac	-0.24122876
130	0x3e7c23a6	0.24622974
131	0x3ade1cde	0.0016945859
132	0x3c9504d4	0.018190779
133	0xbeed4994	-0.46345198
134	0x3daa8f8a	0.08328159
135	0xbe4ba417	-0.19886814
136	0xbf4b4d96	-0.7941526
137	0x3efb6ef9	0.49108103
138	0x3b13ac9d	0.0022533305
139	0x3e6f5932	0.23373869
140	0xbdd8753d	-0.105692364
141	0xbe6bb253	-0.23017244
142	0xbf0f2bd8	-0.55926275
143	0xbed64789	-0.41851452
144	0xbeba309c	-0.3636521
145	0xbdb54a0d	-0.08852015
146	0x3ef4a35d	0.47780886
147	0x3ceeaf4a	0.029136319
148	0x3ed981ee	0.4248194
149	0xbdc841f1	-0.09778202
150	0xbdaf94e1	-0.08573318
151	0x3de45104	0.11148265
152	0x3e2c1b89	0.16807379
153	0xbd068d79	-0.032849763
154	0xbb71c8ae	-0.0036893296
155	0x3da1c023	0.07897975
156	0x3eec2b84	0.4612695
157	0xbcd2f38f	-0.025750903
158	0xbccd16fc	-0.025035374
159	0xbd46ae9d	-0.048506368
160	0xbe025b97	-0.12730251
161	0xbe1443ac	-0.1447894
162	0xbc1ef213	-0.00970127
163	0xbe806628	-0.2507794
164	0xbcd712b1	-0.02625403
165	0xbe255fa8	-0.16149771
166	0x3cfa4aa7	0.030553175
167	0x3e4091e3	0.18805651
168	0x3e0ba9c8	0.13638985
169	0xbdac1116	-0.084016964
170	0xbc8b3018	-0.016990706
171	0xbe7d78bb	-0.24753086
172	0x3ebb465c	0.36577117
173	0xbdda4381	-0.106574066
174	0x3eee32df	0.46523187
175	0xbd0ca121	-0.034333352
176	0x3e2f6a1b	0.1713032
177	0xbc3af870	-0.011411771
178	0xbf15a057	-0.58447784
179	0xbe945780	-0.28973007
180	0xbeaa8172	-0.33301884
181	0xbd88a213	-0.06671538
182	0xbd35c347	-0.044375684
183	0xbe84095b	-0.25788388
184	0x3eaf1c9a	0.3420151
185	0x3c2a761d	0.010404137
186	0xbe9451d8	-0.28968692
187	0xbc99de9b	-0.018782904
188	0xbf0e876a	-0.55675375
189	0xbd41adf6	-0.047285043
190	0x3c2a1470	0.010380849
191	0xbe097214	-0.13422424
192	0xbe790c43	-0.24321084
193	0xbd6dbce0	-0.058041453
194	0xbf00df7a	-0.50341
195	0x3d70eb67	0.058818247
196	0xbcb09421	-0.021555008
197	0x3e844ee1	0.2584143
198	0x3f061530	0.5237608
199	0xbe8bf556	-0.27335614
200	0xbc9ff521	-0.019526066
201	0xbe855c08	-0.26046777
202	0x3ee613c6	0.4493696
203	0xbdd207fe	-0.10255431
204	0x3e8fca25	0.28083912
205	0x3d19a18c	0.03750758
206	0xbe681121	-0.22662784
207	0x3df39262	0.11893155
208	0xbd698bf3	-0.05701823
209	0x3ef0893a	0.46979696
210	0x3e96a4e4	0.29422677
211	0x3e274c1b	0.16337626
212	0xbe533c71	-0.20628525
213	0x3e0ac77c	0.1355266
214	0xbce79518	-0.028269336
215	0xbeb564f7	-0.35428593
216	0xbe33793e	-0.17526719
217	0xbf004535	-0.501056
218	0x3cdfbfd0	0.027313143
219	0x3e2df6a0	0.16988611
220	0xbd9a1425	-0.075233735
221	0x3d9c1424	0.07621029
222	0x3c9dbfb1	0.019256445
223	0x3d3b0042	0.045654543
224	0xbd866cba	-0.06563707
225	0xbca66bcf	-0.020315079
226	0xbc3434ee	-0.010998948
227	0x3ea6a9cb	0.32551417
228	0xbe6f0a67	-0.23343812
229	0x3e84e580	0.25956345
230	0x3e1e6b52	0.15470627
231	0xbd7c1d4d	-0.06155138
232	0x3e13f5d1	0.1444924
233	0xbeb666e3	-0.3562537
234	0xbea57550	-0.32316065
235	0x3e750884	0.2392903
236	0x3eecf952	0.46283966
237	0x3e34bd4e	0.17650339
238	0xbe1b17c7	-0.15145789
239	0x3e6e7512	0.23286846
240	0xbe04d6c0	-0.12972546
241	0xbd33fafd	-0.043940533
242	0x3e69dbfe	0.22837827
243	0x3eb8e25d	0.361102
244	0xbe0ee8de	-0.1395602
245	0x3e8e0306	0.27736682
246	0xbed8765f	-0.4227781
247	0xbeb3b852	-0.35101563
248	0xbdcbd4c0	-0.09952688
249	0x3e914b2b	0.2837766
250	0xbdc6ec6f	-0.09713065
251	0x3e0a4671	0.13503434
252	0xbe80da21	-0.2516642
253	0xbc5a635c	-0.013329353
254	0x3d0ce670	0.03439945
255	0x3dd02699	0.10163612

linear2.bias f4 [3]
0	0x3eac4900	0.33649445
1	0x3df4b05c	0.119477004
2	0x3de052ca	0.10953291
