model/model.pth (torch, 16799 bytes, 4 tensors)

linear1.weight f4 [256, 11]
0	0x3e1cbac9	0.15305628
1	0xbc5b3ec6	-0.013381666
2	0xbcdbf1ae	-0.02684864
3	0x3e80252c	0.2502836
4	0x3e23b7f6	0.15988144
5	0x3e970808	0.29498315
6	0x3c8e7251	0.017388495
7	0x3e8f1841	0.27948192
8	0x3e9b7790	0.30364656
9	0xbe288761	-0.16457893
10	0x3d69d006	0.057083152
11	0x3b2c3b79	0.0026280566
12	0x3dbab5d3	0.091167115
13	0xbe247ecf	-0.16063999
14	0xbe247e98	-0.16063917
15	0x3e79b03d	0.24383636
16	0xbe8bd139	-0.27308062
17	0xbd979c5e	-0.074028715
18	0xbe883bf0	-0.2660823
19	0x3c77fa98	0.01513543
20	0xbda82df7	-0.08211892
21	0x3dd68664	0.10474852
22	0x3e49fdba	0.19725695
23	0x3e8d28a1	0.2757006
24	0xbd0c3342	-0.03422857
25	0xbe4d15b4	-0.2002781
26	0xbde3cc77	-0.11122983
27	0x3e3c288c	0.18374842
28	0x3c456184	0.012047175
29	0x3dcbb240	0.09946108
30	0x3e67e490	0.22645783
31	0x3d38bed4	0.045103863
32	0x3d98b0de	0.0745561
33	0xbe05c8ff	-0.13064955
34	0xbdf666d0	-0.12031329
35	0x3e91e606	0.28495806
36	0xbdde39c8	-0.10850865
37	0x3e224bdc	0.1584925
38	0x3df2c228	0.118534386
39	0x3e01d7df	0.12680005
40	0xbd3d70ab	-0.046250027
41	0x3e2a6da5	0.16643389
42	0xbe122e75	-0.14275534
43	0xbdc60222	-0.096683756
44	0xbd694349	-0.056948934
45	0xbe363f02	-0.17797473
46	0x3e8c8b7f	0.27450177
47	0xbe7eed6b	-0.24895255
48	0xbb98b5d8	-0.0046603493
49	0x3d7d730c	0.061877295
50	0x3e737eaf	0.23778795
51	0xbd0a5740	-0.033774614
52	0xbd79e81d	-0.061012376
53	0xbe3264d2	-0.17421272
54	0x3e67ff04	0.22655874
55	0x3dbb795a	0.09154005
56	0x3e70acdd	0.23503442
57	0xbe844869	-0.25836495
58	0xbe97f07f	-0.2967567
59	0x3ce1d76c	0.027568541
60	0x3a2be899	0.0006557792
61	0x3d8fe580	0.070261955
62	0xbe7a30ba	-0.2443265
63	0xbdada085	-0.08477882
64	0xbe7c59a2	-0.24643567
65	0x3e32118b	0.17389505
66	0xbe24f59d	-0.16109319
67	0xbd8dcdd6	-0.06924026
68	0x3d2ccfc8	0.042190343
69	0x3dbed068	0.09317094
70	0xbd62f455	-0.055408794
71	0x3e62904c	0.22125357
72	0xbe343311	-0.17597605
73	0x3e7da06d	0.24768229
74	0xbe5a3ca8	-0.21312201
75	0xbd0fd23a	-0.035112597
76	0xbe5bafd8	-0.21453798
77	0x3e771e57	0.24132667
78	0xbe5bb06c	-0.21454018
79	0xbe280e2c	-0.16411656
80	0x3e965f0d	0.29369393
81	0xbdf20765	-0.11817817
82	0xbe82e3b5	-0.25564352
83	0xbdae0b80	-0.08498287
84	0xbe2caa3b	-0.16861813
85	0xbe8736b2	-0.26408917
86	0x3bb49dc1	0.00551197
87	0x3da5f93d	0.08104179
88	0xbe337646	-0.17525586
89	0x3d19cbe1	0.03754795
90	0xbe21f75f	-0.15817021
91	0xbd9cee33	-0.076626204
92	0x3e48df74	0.1961649
93	0xbe34278a	-0.17593208
94	0xbdd2bfd4	-0.102904946
95	0xbe64b3b5	-0.22334178
96	0x3cfad23f	0.030617831
97	0x3e44a7e2	0.19204667
98	0xbe64c4d5	-0.2234071
99	0x3dd6e5d1	0.10493053
100	0xbe72f89d	-0.23727651
101	0x3e15e63a	0.14638606
102	0xbe2510a8	-0.16119635
103	0x3e8f8448	0.2803061
104	0xbe941085	-0.28918853
105	0x3c66f917	0.014097474
106	0x3de1d347	0.11026626
107	0x3e08045e	0.13282916
108	0xbc8a2bdc	-0.016866617
109	0xbe380e76	-0.17974266
110	0xbe163b73	-0.14671116
111	0x3df816cb	0.121137224
112	0xbe66a0ae	-0.22522232
113	0xbdaa01fc	-0.0830116
114	0x3e4c7ff7	0.1997069
115	0xbdc4923a	-0.09598203
116	0xbdd270a9	-0.102753945
117	0x3d84a492	0.06476702
118	0x3e19626f	0.14978956
119	0x3c4102a7	0.0117804175
120	0xbda5a599	-0.08088226
121	0xbe4fbd7b	-0.20287125
122	0xba6e13c4	-0.0009081925
123	0xbe830a99	-0.25594023
124	0xbbec8835	-0.0072183856
125	0x3ac70fba	0.0015187182
126	0xbe38f966	-0.18063888
127	0x3e6505ef	0.22365545
128	0xbd3b8dd5	-0.04578956
129	0x3e7f0faa	0.24908319
130	0xbcbf6bdc	-0.023366861
131	0xbe6d1abe	-0.23154733
132	0xbdea5045	-0.114410914
133	0x3e2c71a2	0.16840222
134	0x3e6ab0b6	0.22918972
135	0xbe8c2fff	-0.27380368
136	0xbe121ecb	-0.14269559
137	0xbe809e7c	-0.25120914
138	0xbe9b49f6	-0.30329865
139	0xbe39ad05	-0.18132408
140	0xbe31132c	-0.1729247
141	0x3e302ad1	0.17203833
142	0xbd86fbe8	-0.06591016
143	0xbd206408	-0.039157897
144	0x3e00e3df	0.12586926
145	0xbdcf07ba	-0.101088956
146	0x3e4ddd58	0.20103967
147	0x3e8e9e8a	0.2785533
148	0x3e6fab11	0.234051
149	0xbdf91aff	-0.12163352
150	0xbe94669f	-0.28984544
151	0xbe7bb82f	-0.24581979
152	0x3e688b0b	0.2270929
153	0xbc38c929	-0.011278429
154	0x3e65effd	0.2245483
155	0xbe21c382	-0.15797237
156	0xbda5be34	-0.08092919
157	0x3d84fb01	0.06493188
158	0xbc07acc0	-0.008280933
159	0xbe7e0b84	-0.2480908
160	0xbdee919a	-0.11648865
161	0x3cb6d264	0.022317119
162	0xbe6f6a7d	-0.23380466
163	0x3e8367f4	0.25665247
164	0xbc529ed9	-0.012855255
165	0x3e418a57	0.18900429
166	0xbc352f89	-0.011058697
167	0xbe14cc28	-0.14531004
168	0x3d729ab2	0.05922956
169	0xbe3b8900	-0.1831398
170	0x3cf0385a	0.029323746
171	0xbe0c7f79	-0.13720502
172	0xbe995be8	-0.2995293
173	0x3e5d84d8	0.21632707
174	0xbcbca3f8	-0.023027405
175	0xbd245bc8	-0.040126592
176	0x3e937af8	0.28804755
177	0xbe92c718	-0.2866752
178	0x3e444208	0.19165814
179	0xbe75c559	-0.24001063
180	0xbd6ddf1e	-0.05807411
181	0x3e72cfbe	0.2371206
182	0xbd048be0	-0.032359958
183	0xbe122902	-0.14273456
184	0xbddddcdc	-0.10833141
185	0xbe945817	-0.28973457
186	0x3da994be	0.082803234
187	0xbd9c68a4	-0.07637146
188	0x3ca9fdd0	0.02075091
189	0xbe8e708e	-0.27820247
190	0xbe51be7d	-0.20482822
191	0xbe1d2d75	-0.15349372
192	0x3e675613	0.22591428
193	0x3e03083c	0.1279611
194	0x3be82f35	0.0070857056
195	0x3e4d05d0	0.20021749
196	0xbdf0f9a7	-0.117663674
197	0xbd84aef1	-0.0647868
198	0x3dc2a791	0.09504617
199	0xbd7ac362	-0.061221488
200	0xbda1c50e	-0.07898913
201	0x3da26745	0.07929853
202	0x3d3d58fb	0.046227437
203	0x3e83d056	0.25744885
204	0x3dee2d9d	0.11629794
205	0x3d1c8ed9	0.038222168
206	0x3e7a599b	0.24448244
207	0xbe2bae49	-0.16765703
208	0xbe98ab50	-0.298182
209	0xbe24c39c	-0.16090244
210	0x3e1e0686	0.15432176
211	0xbe7dc88e	-0.24783537
212	0xbdaa97bc	-0.08329722
213	0xbe241d7c	-0.16026872
214	0xbde236e8	-0.11045629
215	0xbe4d4f5b	-0.20049803
216	0xbe8dc457	-0.27688858
217	0x3d222480	0.03958559
218	0xbe5cdacc	-0.2156784
219	0xbdabce10	-0.08388913
220	0x3b96f299	0.0046065566
221	0xbdf89f38	-0.121397436
222	0xbe0f9d16	-0.14024767
223	0xbe90f147	-0.2830908
224	0x3e8ea38b	0.27859148
225	0xbd7b241b	-0.06131373
226	0x3dc75eca	0.097348765
227	0x3de7dff2	0.11322011
228	0xbe932384	-0.28738034
229	0xbca525ff	-0.02015972
230	0x3dda8006	0.1066895
231	0x3db7df3c	0.089781255
232	0xbd634b57	-0.05549177
233	0x3e1bc0ba	0.15210238
234	0x3e224934	0.15848237
235	0x3e3dd226	0.18537197
236	0xbc57f513	-0.013180989
237	0x3e54a23d	0.20765014
238	0xbe87741c	-0.26455772
239	0x3e1b1c52	0.15147522
240	0xbe43ee19	-0.19133796
241	0xbe7a021c	-0.24414867
242	0xbcb2b7dc	-0.021816187
243	0xbcf3fa61	-0.029782476
244	0xbe82baab	-0.2553304
245	0xbdf7b618	-0.120952785
246	0xbc9194c3	-0.01777113
247	0x3e913721	0.28362373
248	0xbddc5b19	-0.10759563
249	0xbe1410ba	-0.14459506
250	0xbe84c2c7	-0.25929853
251	0xbe4e76ca	-0.20162502
252	0xbd5b631a	-0.053561307
253	0xbc4ffb8f	-0.012694254
254	0x3cd81add	0.026379997
255	0xbe4ca30e	-0.19984075

linear1.bias f4 [256]
0	0xbce34fbe	-0.027747985
1	0x3e810997	0.2520263
2	0x3e7fde77	0.24987207
3	0xbe6a4216	-0.22876772
4	0x3de7d61c	0.11320135
5	0xbe53e7c2	-0.20693877
6	0xbaacebe6	-0.0013192862
7	0xbdba2df2	-0.090907946
8	0x3e2a3a81	0.1662388
9	0xbe957bcc	-0.29196012
10	0xbb8ffd8f	-0.00439424
11	0x3e10a7c3	0.14126496
12	0x3e6da534	0.23207551
13	0x3ea4e6ab	0.32207236
14	0xbdc7e599	-0.09760589
15	0x3d6249cf	0.05524617
16	0x3e1e8de5	0.15483816
17	0xbcdc0434	-0.026857473
18	0xbdb9b1dc	-0.09067127
19	0xbe3cde5a	-0.18444195
20	0xbcbc613b	-0.022995582
21	0x3e01be7e	0.12670323
22	0xbe1d07ce	-0.15335009
23	0x3e566886	0.2093831
24	0xbe118d5b	-0.14214079
25	0xbddd6236	-0.10809748
26	0x3c8c1965	0.017101953
27	0x3e8404ea	0.25785
28	0x3c940cd0	0.018072516
29	0x3d18a7f8	0.037269562
30	0xbd87214a	-0.06598146
31	0xbe818e50	-0.25303888
32	0x3e85d0ab	0.26135764
33	0x3e013aa2	0.12620023
34	0xbe29a64e	-0.16567346
35	0xbe710994	-0.2353881
36	0xbd30d0bd	-0.04316782
37	0x3a30f1e0	0.00067499094
38	0x3e2fb1a9	0.17157616
39	0x3e979fe4	0.29614174
40	0x3e4b3e23	0.19847922
41	0xbe40967f	-0.1880741
42	0xbe034253	-0.1281827
43	0x3c822af5	0.015889624
44	0xbdf244bf	-0.118295185
45	0x3dff982f	0.124801986
46	0xbd1b76b4	-0.037955
47	0xbd429df4	-0.047513917
48	0x3d6d7102	0.0579691
49	0x3e452c24	0.1925512
50	0xbe90d2fe	-0.28285974
51	0x3d4dd673	0.050253343
52	0x3d394621	0.045232896
53	0x3e2d8793	0.16946249
54	0xbd60e74d	-0.054908086
55	0xbe138967	-0.14407884
56	0xbe4a0e41	-0.19732
57	0x3ea01d4f	0.3127236
58	0xbe80fddc	-0.2519368
59	0x3d806737	0.06269687
60	0x3e7d50c3	0.2473784
61	0x3ea2563e	0.31706423
62	0x3e86a784	0.2629968
63	0xbcac023c	-0.02099716
64	0x3d5c7931	0.053826515
65	0xbe8985b7	-0.2685983
66	0xbe59dd34	-0.21275789
67	0x3e19be26	0.15013942
68	0xbe51ab83	-0.20475583
69	0xbe21ecc4	-0.15812975
70	0x3dfe0396	0.12403028
71	0x3e4826ee	0.195461
72	0xbe9c6669	-0.30546883
73	0xbe9d6688	-0.30742288
74	0xbe8603c0	-0.26174736
75	0x3cd07e0e	0.025450733
76	0x3c5872d8	0.013210975
77	0x3e0d2413	0.13783292
78	0x3dc59776	0.096480295
79	0x3b2cd619	0.002637273
80	0xbd88a970	-0.06672943
81	0x3e87716e	0.26453727
82	0xbd503c12	-0.050838538
83	0x3e89bda9	0.26902512
84	0x3de330c7	0.11093288
85	0xbe1665d8	-0.14687288
86	0xbe89dc89	-0.26926067
87	0xbe47e23a	-0.19519892
88	0xbd83e693	-0.06440463
89	0x3e621062	0.22076562
90	0xbe679133	-0.22613983
91	0x3e8f763a	0.28019887
92	0xbdae2f36	-0.085050985
93	0xbd38ff98	-0.04516563
94	0x3e110d89	0.1416532
95	0x3dc51f56	0.096251175
96	0x3de10788	0.109877646
97	0x3e7f5092	0.24933079
98	0x3d94f27c	0.07272813
99	0x3d1cb73f	0.038260695
100	0x3e92865f	0.28618142
101	0xbc6a56a5	-0.014302884
102	0x3d99ce2a	0.07510026
103	0xbd3368e5	-0.043801207
104	0x3dba8e8c	0.0910922
105	0x3d9599b9	0.07304711
106	0x3e93f780	0.28899765
107	0x3e802837	0.25030681
108	0x3d0415b7	0.03224727
109	0x3e9a3826	0.30120963
110	0x398a9def	0.0002643908
111	0x3e670600	0.22560883
112	0x3d79b4dd	0.0609635
113	0x3e3d8d5f	0.1851096
114	0xbe206c17	-0.15666233
115	0x3d69d233	0.057085227
116	0x3e05ce91	0.1306708
117	0xbd383c79	-0.044979546
118	0xbc37fee9	-0.011230209
119	0x3e6c18d2	0.23056343
120	0x3caecd69	0.021338182
121	0x3e8d0bcd	0.27548066
122	0xbe89b246	-0.26893824
123	0x3e92402f	0.28564593
124	0x3e5779ea	0.210426
125	0x3e535ec8	0.20641625
126	0xbe8a1b9f	-0.26974198
127	0xbe950951	-0.2910867
128	0xbd7d1107	-0.061783817
129	0xbe91667e	-0.28398508
130	0x3da938ed	0.08262811
131	0x3dbcd5a9	0.0922044
132	0xbde7489e	-0.112931475
133	0xbdbc24cb	-0.09186705
134	0xbe4686bd	-0.19387336
135	0x3e7ba6c7	0.2457534
136	0xbe10819c	-0.14111942
137	0x3dc9144e	0.09818326
138	0x3e4bcddb	0.19902746
139	0x3df55023	0.119781755
140	0x3e86cce6	0.263282
141	0x3d19f9d5	0.037591774
142	0xbcc765f4	-0.024340607
143	0x3e5b0723	0.21389441
144	0x3aaaf140	0.0013041869
145	0x3e4e3078	0.20135677
146	0xbd65ac29	-0.056072388
147	0x3e0258e1	0.12729217
148	0xbe712116	-0.23547778
149	0x3d57db6d	0.052699495
150	0x3c9d601c	0.019210868
151	0x3d5ae3a4	0.05343975
152	0xbe9058b3	-0.28192672
153	0xbe8d30ca	-0.27576286
154	0x3e8c874d	0.27446976
155	0xbd3d0311	-0.046145502
156	0x3d42d987	0.04757073
157	0xbdba24e2	-0.09089066
158	0x3d5656ae	0.052328758
159	0xbe80e269	-0.25172737
160	0xbdd3f283	-0.1034899
161	0xbe96418e	-0.2934689
162	0xbe3a6058	-0.18200815
163	0x3e880dfe	0.26573175
164	0xbdad13e0	-0.084510565
165	0x3e91e160	0.2849226
166	0xbd32e773	-0.04367776
167	0x3dca7441	0.09885455
168	0xbe6c422d	-0.23072119
169	0x3d9224a7	0.07135897
170	0xbe94e5c9	-0.29081562
171	0x3e1d2990	0.15347886
172	0x3e8aee03	0.27134714
173	0x3e89ab39	0.26888445
174	0xbe3af78b	-0.18258493
175	0x3e39bb51	0.18137862
176	0x3d864b48	0.065573275
177	0xbdcba516	-0.09943597
178	0x3e2bfa08	0.16794598
179	0x3e08ba39	0.13352288
180	0xbe8755a1	-0.26432517
181	0xbe881e06	-0.26585406
182	0xbe2db35c	-0.16962951
183	0xba8126e0	-0.0009853505
184	0xbe7503d0	-0.23927236
185	0xbe98468a	-0.29741317
186	0xbe8bcf2f	-0.27306506
187	0xbdc2adfb	-0.095058404
188	0xbdffdc83	-0.12493231
189	0x3d88ca03	0.06679156
190	0xbe3f31ad	-0.18671294
191	0xbd9c7a6e	-0.07640539
192	0x3e3c6544	0.18398005
193	0xbe7bc096	-0.24585184
194	0xbe89a9a1	-0.2688723
195	0xbe6fcaaf	-0.23417161
196	0xbe331983	-0.174902
197	0xbe4ee91a	-0.20206109
198	0x3e005fa2	0.12536481
199	0x3e63d735	0.22250064
200	0x3daad4f5	0.083413996
201	0x3e11514b	0.14191167
202	0x3daa4096	0.083131
203	0xbe8d45b8	-0.27592254
204	0x3e305945	0.17221554
205	0xbe7d361b	-0.24727671
206	0xbd93a4c1	-0.07209159
207	0x3e81f85b	0.25384793
208	0x3de3ab25	0.111166276
209	0x3e4fc7a9	0.20291008
210	0xbe076bdf	-0.13224743
211	0x3e363240	0.17792606
212	0x3e890ade	0.26766104
213	0x3d8fe97b	0.07026955
214	0x3b63f371	0.0034782554
215	0x3e3b65dd	0.18300577
216	0xbce03941	-0.02737105
217	0x3dc813e8	0.09769422
218	0x3e508f52	0.20367172
219	0xbc29960f	-0.010350718
220	0xbe9477ea	-0.28997737
221	0x3d63cdcf	0.055616196
222	0x3e91c005	0.28466812
223	0x3bdc83d1	0.006729581
224	0x3d5d8005	0.054077167
225	0x3e646de9	0.22307552
226	0x3e5a9d24	0.21349007
227	0xbda07bc1	-0.07836104
228	0xbe150ca0	-0.14555597
229	0xbe410d5e	-0.18852755
230	0x3e1ade19	0.15123786
231	0x3e812437	0.25222942
232	0x3d2bfefd	0.041991223
233	0xbe04d037	-0.12970053
234	0xbe1dab89	-0.15397467
235	0x3e1cf4db	0.1532778
236	0xbe84749f	-0.25870225
237	0xbdc47da5	-0.09594277
238	0xbd944890	-0.07240403
239	0x3d76a884	0.060219303
240	0x3e6495c8	0.22322762
241	0x3d838113	0.06421103
242	0x3e41dd24	0.18932015
243	0x3de7891f	0.11305451
244	0x3dce0e82	0.10061361
245	0xbbb4b401	-0.005514622
246	0xbe418a6c	-0.1890046
247	0x3e7dce04	0.2478562
248	0x3e19abfe	0.15007016
249	0x3e37fc80	0.17967415
250	0x3e2c8ac0	0.16849804
251	0xbe8b9d05	-0.27268234
252	0xbd94c827	-0.072647385
253	0x3daf3e86	0.08556847
254	0xbc2c225e	-0.010506241
255	0xbe1188d1	-0.14212348

linear2.weight f4 [3, 256]
0	0xbbbd93c0	-0.0057854354
1	0x3bf2cf6e	0.0074099815
2	0xbd74694b	-0.059670728
3	0x3d12b71a	0.03581915
4	0x3c7fc0ef	0.015609964
5	0xbd573bcf	-0.052547272
6	0x3d04ab4c	0.032389924
7	0xbd36df02	-0.04464627
8	0xbda3697b	-0.07979103
9	0x3d800516	0.0625097
10	0x3b73d7c4	0.0037207464
11	0x3c92dda9	0.017927961
12	0x3c92f577	0.017939312
13	0xbcfb82ff	-0.030702112
14	0xbd0df6b1	-0.03465909
15	0xbc040a31	-0.00805907
16	0xbd6b4d44	-0.057446733
17	0xbd16db9f	-0.03683054
18	0x3c8e630e	0.017381217
19	0x3d5670ec	0.052353784
20	0xbd6c9aa4	-0.057764664
21	0xbc08c02d	-0.0083465995
22	0x3d05bdd8	0.032651752
23	0xbc2ce512	-0.0105526615
24	0xbd4d65da	-0.05014596
25	0xbd2f4448	-0.042789727
26	0xbd82df70	-0.063902736
27	0xbd14e5f6	-0.03635212
28	0xbd4dfd12	-0.050290175
29	0xbccb41bf	-0.024811624
30	0x3c2ae995	0.010431667
31	0x3ce14c05	0.02750207
32	0xbd171d63	-0.03689326
33	0x3d101ef2	0.03518576
34	0xbcf60f37	-0.030036552
35	0xbcf203c9	-0.02954282
36	0x3ce3ed34	0.027823068
37	0x3d329474	0.043598607
38	0x3bdb4042	0.0066910097
39	0x399b2dc0	0.0002959799
40	0xbca144de	-0.019686159
41	0xbcc8746b	-0.024469575
42	0x3c56e2a5	0.01311556
43	0xbd5ed7b7	-0.05440494
44	0x3d35f616	0.04442414
45	0x3d60d86f	0.054893907
46	0x3d9ab123	0.075533174
47	0xbd1c2150	-0.038117707
48	0x3cc3f925	0.023922512
49	0x3c72fd96	0.014830967
50	0x3bea15c1	0.0071437065
51	0x3cd77e82	0.02630544
52	0xbd003c43	-0.03130747
53	0xbd03e709	-0.032202754
54	0xbcec1d3e	-0.028822538
55	0xbcb0a0d9	-0.021561073
56	0xbd1424e4	-0.036167994
57	0xbcaef168	-0.021355346
58	0x3d569ad9	0.052393768
59	0xbd510358	-0.05102858
60	0x3d17b345	0.0370362
61	0xbcb4f193	-0.022087848
62	0xbc8bccf4	-0.017065503
63	0x3d6203a1	0.055179242
64	0x3cb7a8bf	0.022419332
65	0xbd66fbc2	-0.05639244
66	0xbd2bc0dc	-0.041931972
67	0xbcd52530	-0.026018709
68	0x3d3913be	0.045184843
69	0x3cf7ea04	0.030262955
70	0x3cbc697d	0.02299952
71	0xbd2d97b5	-0.042381007
72	0x3c816d7f	0.015799282
73	0x3d07aaf5	0.03312202
74	0x3c16c8c5	0.009203141
75	0xbd43ed3c	-0.047833666
76	0xbc78b75c	-0.015180435
77	0x3cd574a7	0.0260566
78	0x35dc52a0	1.6415324e-06
79	0x3c8dc1d1	0.017304333
80	0xbd4c90fa	-0.049942948
81	0xbd30f9ac	-0.043206856
82	0x3d506d4a	0.050885476
83	0xbd449dbf	-0.048002
84	0x3cd0db46	0.025495183
85	0x3d0fd3ee	0.03511422
86	0x3cfbe2b2	0.030747745
87	0xbca0a0e0	-0.019607961
88	0x3d1b8c5a	0.037975647
89	0x3c4a6bee	0.012354834
90	0xbd625585	-0.05525734
91	0xbd4c5c8f	-0.04989296
92	0xbc15b991	-0.009138481
93	0x3cb63f2b	0.022246918
94	0x3cce0e20	0.02515322
95	0xbd04bc67	-0.032406237
96	0x3c816542	0.015795354
97	0x3c1c363b	0.009534414
98	0xbd2ef4c8	-0.04271391
99	0x3c9b40ea	0.018951852
100	0x3d1bd1ed	0.038041998
101	0x3d44c2b6	0.048037253
102	0x3c257816	0.0100994315
103	0xbc847656	-0.016169708
104	0x3b03d008	0.002011301
105	0x3c75732b	0.014981071
106	0xbcec22b7	-0.028825147
107	0x3c55f933	0.013059902
108	0xbd3fb4fd	-0.046803463
109	0xbd3becc0	-0.04588008
110	0x3d027a46	0.03185489
111	0xbce19e5a	-0.027541328
112	0xbcf8a984	-0.030354269
113	0xbd3df8ba	-0.046379782
114	0x3d4924e0	0.049107432
115	0x3cb63e9e	0.022246655
116	0xbc7b969b	-0.015355731
117	0xbc3318d4	-0.010931212
118	0x3d8fe412	0.07025923
119	0xbc3609cb	-0.011110733
120	0xbd3f2f02	-0.04667569
121	0xbd370cf3	-0.044690084
122	0x3d272477	0.04080626
123	0xbd6f302c	-0.05839555
124	0x3c43ca25	0.0119500505
125	0x3d1d1dd5	0.03835853
126	0x3b13139d	0.002244211
127	0x3d6cf32b	0.05784909
128	0x3d3d9c06	0.046291374
129	0xbd9010cb	-0.07034453
130	0xbd86a09b	-0.06573602
131	0xbd1837ba	-0.03716252
132	0xbd019b93	-0.031642508
133	0xbca6ed5d	-0.020376856
134	0x3d676852	0.056495972
135	0x3db3bace	0.087758645
136	0xbc0b4778	-0.008500926
137	0xbcf3b34f	-0.029748587
138	0xb8fcf857	-0.00012062553
139	0x3d15a40d	0.036533404
140	0x3c4da629	0.012551823
141	0xbc87d879	-0.016582714
142	0xbd6e68ca	-0.058205403
143	0x3d0227c6	0.031776212
144	0xbd2fadb1	-0.042890254
145	0xbd384905	-0.04499151
146	0xbbcd5f4f	-0.006267465
147	0x3d63d221	0.055620316
148	0x3bf9a385	0.00761837
149	0x3cfc041c	0.030763678
150	0xbda56b69	-0.080771275
151	0xbc6c121a	-0.014408613
152	0x3b950ea0	0.0045488626
153	0x3b933f50	0.0044936314
154	0xba61f6af	-0.00086198276
155	0xbc446f23	-0.011989388
156	0x3ce96fbf	0.028495668
157	0x3cc8b959	0.024502443
158	0xbd9dabd0	-0.07698786
159	0xbd76f4fd	-0.060292233
160	0x3b17fc40	0.0023191124
161	0xbd371140	-0.044694185
162	0xbd13cb64	-0.03608264
163	0x3c3f7b25	0.011687075
164	0xbcefe91f	-0.029285965
165	0xbd8755c8	-0.06608158
166	0x3c42a802	0.0118808765
167	0x3d23284c	0.039833352
168	0x3c414430	0.011796042
169	0x3d2922fd	0.041293133
170	0xbd48b38e	-0.04899936
171	0x3cfdfad4	0.031003393
172	0x3d35b6bf	0.044363733
173	0xbc8b6839	-0.01701747
174	0xbd41b3d4	-0.047290638
175	0x3d0c33ae	0.034228973
176	0xbdbb6945	-0.09150938
177	0xbd163ed6	-0.03668102
178	0x3d3e583e	0.046470873
179	0xbcff6098	-0.03117399
180	0xbd099ebf	-0.033598658
181	0x3d513cb6	0.05108329
182	0xbd31b7e0	-0.043388247
183	0x3d3a37f0	0.045463502
184	0xbd0b69c0	-0.034036398
185	0xbce2c2ba	-0.027680743
186	0x3b05e9f0	0.0020433627
187	0x3d11e577	0.035619225
188	0xbb43d018	-0.0029878672
189	0xbc39cd78	-0.0113404915
190	0x3d36f6c6	0.044668935
191	0x3d23f0e6	0.04002466
192	0x3d32f61e	0.043691747
193	0x3c732402	0.014840128
194	0x3c8209da	0.015873838
195	0x3d472064	0.048614874
196	0xbd0dece8	-0.03464976
197	0x3c6d9e21	0.014503033
198	0x3ce852bb	0.028359761
199	0x3c398f0f	0.011325612
200	0xbd103b8a	-0.03521303
201	0xbd666ef5	-0.05625816
202	0x3d1aa632	0.037756152
203	0x3bab08e6	0.0052195666
204	0x3d80843e	0.06275223
205	0xbd77b87e	-0.06047868
206	0xbc2a5b6a	-0.010397771
207	0xbd366458	-0.04452929
208	0xbc835334	-0.016030885
209	0xbc88990d	-0.016674543
210	0xbd7de098	-0.061981767
211	0x3d063a86	0.032770656
212	0x3d19965e	0.037496917
213	0x3d097d56	0.033566795
214	0xbccf65cb	-0.025317093
215	0x3d1dba90	0.038507998
216	0xbd37dd1d	-0.044888604
217	0xbd444afd	-0.047923077
218	0xbc1129a5	-0.0088600265
219	0x3ccdf3e9	0.02514072
220	0xbcbb1c40	-0.02284062
221	0x3ce43250	0.027856022
222	0x3c441487	0.011967785
223	0x3d1fd803	0.039024364
224	0xbd6db210	-0.05803114
225	0xbd3a67c0	-0.0455091
226	0x3d9a1089	0.07522685
227	0x3d566abe	0.05234789
228	0x3d7103ce	0.05884152
229	0x3d46cac4	0.048533216
230	0x3d3e9b22	0.046534665
231	0xbd0c3ac8	-0.034235746
232	0xbc26198a	-0.010137925
233	0xbc1d2124	-0.009590421
234	0x3d50128f	0.05079895
235	0x3ca38da3	0.019964999
236	0x3d190b24	0.03736414
237	0x3d9e36a2	0.07725264
238	0xbcb163d0	-0.02165404
239	0xbd8dc128	-0.06921607
240	0xbce435e4	-0.027857728
241	0xbd519509	-0.05116752
242	0xbd733e37	-0.059385505
243	0x3c03ba42	0.008040013
244	0xbcc99272	-0.024605963
245	0xbbda9da0	-0.0066716224
246	0x3c543bfe	0.012953756
247	0x3c846d99	0.016165541
248	0x3bca9810	0.006182678
249	0x3bd00e0b	0.0063493303
250	0xbd00c623	-0.031438958
251	0xbb3466a8	-0.0027527008
252	0xba26639e	-0.00063472416
253	0xbd455cb3	-0.048184108
254	0xbd4f1282	-0.05055476
255	0xbd346c9e	-0.044048898

linear2.bias f4 [3]
0	0x3cf23bb6	0.029569488
1	0xbc3c47e5	-0.01149175
2	0x3d382cd2	0.04496462
